==========================================================================================
Layer (type:depth-idx)                   Output Shape              Param #
==========================================================================================
Lenet                                    [1, 10]                   --
├─Conv2d: 1-1                            [1, 6, 28, 28]            156
├─MaxPool2d: 1-2                         [1, 6, 14, 14]            --
├─Conv2d: 1-3                            [1, 16, 10, 10]           2,416
├─MaxPool2d: 1-4                         [1, 16, 5, 5]             --
├─Linear: 1-5                            [1, 120]                  48,120
├─Linear: 1-6                            [1, 84]                   10,164
├─Linear: 1-7                            [1, 10]                   850
==========================================================================================
Total params: 61,706
Trainable params: 61,706
Non-trainable params: 0
Total mult-adds (M): 0.42
==========================================================================================
Input size (MB): 0.00
Forward/backward pass size (MB): 0.05
Params size (MB): 0.25
Estimated Total Size (MB): 0.30
======
…
